…
od=100, loss_type='mse', lr=0.001, lr_step_size=15, lr_gamma=0.5, weight_decay=1e-06, early_stop=100, num_workers=2, device='cuda', data_parallel=True, exp_dir=PosixPath('/home/wsm32/project/wsm_thesis_scratch/narratives/rt_large/lm_pretrain_korea'), save_model=True, save_embedding=True, checkpoint=None, encoder_base=None, seed=0, test=False, freeze=False, language_only=False, resume=False, inference_dir=PosixPath('/home/wsm32/project/wsm_thesis_scratch/narratives/rt_large/lm_pretrain_korea/inference'))
INFO:train_frame:DataParallel(
  (module): POS_Decoder(
    (embed): Embeddings(
      (lut): Linear(in_features=20, out_features=128, bias=True)
    )
    (pos_encoder): PositionalEncoding(
      (dropout): Dropout(p=0.1, inplace=False)
    )
    (dec_layer): TransformerDecoderLayer(
      (self_attn): MultiheadAttention(
        (out_proj): NonDynamicallyQuantizableLinear(in_features=128, out_features=128, bias=True)
      )
      (multihead_attn): MultiheadAttention(
        (out_proj): NonDynamicallyQuantizableLinear(in_features=128, out_features=128, bias=True)
      )
      (linear1): Linear(in_features=128, out_features=512, bias=True)
      (dropout): Dropout(p=0.1, inplace=False)
      (linear2): Linear(in_features=512, out_features=128, bias=True)
      (norm1): LayerNorm((128,), eps=1e-05, elementwise_affine=True)
      (norm2): LayerNorm((128,), eps=1e-05, elementwise_affine=True)
      (norm3): LayerNorm((128,), eps=1e-05, elementwise_affine=True)
      (dropout1): Dropout(p=0.1, inplace=False)
      (dropout2): Dropout(p=0.1, inplace=False)
      (dropout3): Dropout(p=0.1, inplace=False)
    )
    (dec): TransformerDecoder(
      (layers): ModuleList(
        (0-1): 2 x TransformerDecoderLayer(
          (self_attn): MultiheadAttention(
            (out_proj): NonDynamicallyQuantizableLinear(in_features=128, out_features=128, bias=True)
          )
          (multihead_attn): MultiheadAttention(
            (out_proj): NonDynamicallyQuantizableLinear(in_features=128, out_features=128, bias=True)
          )
          (linear1): Linear(in_features=128, out_features=512, bias=True)
          (dropout): Dropout(p=0.1, inplace=False)
          (linear2): Linear(in_features=512, out_features=128, bias=True)
          (norm1): LayerNorm((128,), eps=1e-05, elementwise_affine=True)
          (norm2): LayerNorm((128,), eps=1e-05, elementwise_affine=True)
          (norm3): LayerNorm((128,), eps=1e-05, elementwise_affine=True)
          (dropout1): Dropout(p=0.1, inplace=False)
          (dropout2): Dropout(p=0.1, inplace=False)
          (dropout3): Dropout(p=0.1, inplace=False)
        )
      )
      (norm): LayerNorm((128,), eps=1e-05, elementwise_affine=True)
    )
    (token_predict): Linear(in_features=128, out_features=20, bias=True)
  )
)
save logs to /home/wsm32/project/wsm_thesis_scratch/narratives/rt_large/lm_pretrain_korea
Batch: 0
/gpfs/gibbs/project/frank/wsm32/wsm_thesis_scratch/narratives/code/fMRI-Embedding-narratives/tcae_new/lib/python3.11/site-packages/torch/nn/modules/linear.py:125: UserWarning: Attempting to run cuBLAS, but there was no current CUDA context! Attempting to set the primary context... (Triggered internally at ../aten/src/ATen/cuda/CublasHandlePool.cpp:135.)
…
