…
um_epochs=100, report_period=10, loss_type='mse', lr=0.01, lr_step_size=30, lr_gamma=0.5, weight_decay=0.0, early_stop=20, num_workers=2, device='cuda', data_parallel=True, exp_dir=PosixPath('/home/wsm32/project/wsm_thesis_scratch/narratives/models'), save_model=True, save_embedding=True, checkpoint='/home/wsm32/project/wsm_thesis_scratch/narratives/models/model.pt', seed=0, test=False, resume=True, inference_dir=PosixPath('/home/wsm32/project/wsm_thesis_scratch/narratives/models/inference'))
INFO:train_frame:DataParallel(
  (module): Standard_Autoencoder(
    (encoder): Encoder(
      (en_emd): Linear(in_features=81924, out_features=64, bias=True)
      (pos_encoder): PositionalEncoding(
        (dropout): Dropout(p=0.0, inplace=False)
      )
      (layers): ModuleList(
        (0): SelfAttentionLayer(
          (self_attn): MultiHeadedAttention(
            (linears): ModuleList(
              (0-3): 4 x Linear(in_features=64, out_features=64, bias=True)
            )
            (dropout): Dropout(p=0.1, inplace=False)
          )
          (feed_forward): PositionwiseFeedForward(
            (w_1): Linear(in_features=64, out_features=512, bias=True)
            (w_2): Linear(in_features=512, out_features=64, bias=True)
            (dropout): Dropout(p=0.0, inplace=False)
          )
          (sublayer): ModuleList(
            (0-1): 2 x ResidualConnection(
              (norm): LayerNorm()
              (dropout): Dropout(p=0.0, inplace=False)
            )
          )
        )
      )
      (norm): LayerNorm()
    )
    (decoder): Decoder(
      (de_emd): Linear(in_features=64, out_features=81924, bias=True)
      (layers): ModuleList(
        (0): SelfAttentionLayer(
          (self_attn): MultiHeadedAttention(
            (linears): ModuleList(
              (0-3): 4 x Linear(in_features=64, out_features=64, bias=True)
            )
            (dropout): Dropout(p=0.1, inplace=False)
          )
          (feed_forward): PositionwiseFeedForward(
            (w_1): Linear(in_features=64, out_features=512, bias=True)
            (w_2): Linear(in_features=512, out_features=64, bias=True)
            (dropout): Dropout(p=0.0, inplace=False)
          )
          (sublayer): ModuleList(
            (0-1): 2 x ResidualConnection(
              (norm): LayerNorm()
              (dropout): Dropout(p=0.0, inplace=False)
            )
          )
        )
      )
      (norm): LayerNorm()
    )
  )
)
/vast/palmer/scratch/frank/wsm32/wsm_thesis_scratch/narratives/code/fMRI-Embedding-narratives/train_frame.py:295: FutureWarning: You are using `torch.load` with `weights_only=False` (the current default value), which uses the default pickle module implicitly. It is possible to construct malicious pickle data which will execute arbitrary code during unpickling (See https://github.com/
…
