…
mma=0.5, weight_decay=0.0, early_stop=100, num_workers=2, device='cuda', data_parallel=True, exp_dir=PosixPath('/home/wsm32/project/wsm_thesis_scratch/narratives/rt_large/pos_2_2'), save_model=True, save_embedding=True, checkpoint=None, encoder_base='/home/wsm32/project/wsm_thesis_scratch/narratives/rt_large/0.001-0.5-2-128-0.05-8-16/best_model.pt', seed=0, test=False, freeze=False, resume=False, inference_dir=PosixPath('/home/wsm32/project/wsm_thesis_scratch/narratives/rt_large/pos_2_2/inference'))
INFO:train_frame:DataParallel(
  (module): POS_predictor(
    (encoder): Encoder(
      (en_emd): Linear(in_features=81924, out_features=128, bias=True)
      (pos_encoder): PositionalEncoding(
        (dropout): Dropout(p=0.05, inplace=False)
      )
      (layers): ModuleList(
        (0-1): 2 x SelfAttentionLayer(
          (self_attn): MultiHeadedAttention(
            (linears): ModuleList(
              (0-3): 4 x Linear(in_features=128, out_features=128, bias=True)
            )
            (dropout): Dropout(p=0.1, inplace=False)
          )
          (feed_forward): PositionwiseFeedForward(
            (w_1): Linear(in_features=128, out_features=512, bias=True)
            (w_2): Linear(in_features=512, out_features=128, bias=True)
            (dropout): Dropout(p=0.05, inplace=False)
          )
          (sublayer): ModuleList(
            (0-1): 2 x ResidualConnection(
              (norm): LayerNorm()
              (dropout): Dropout(p=0.05, inplace=False)
            )
          )
        )
      )
      (norm): LayerNorm()
    )
    (decoder): POS_Decoder(
      (embed): Embeddings(
        (lut): Linear(in_features=20, out_features=128, bias=True)
      )
      (pos_encoder): PositionalEncoding(
        (dropout): Dropout(p=0.0, inplace=False)
      )
      (dec_layer): TransformerDecoderLayer(
        (self_attn): MultiheadAttention(
          (out_proj): NonDynamicallyQuantizableLinear(in_features=128, out_features=128, bias=True)
        )
        (multihead_attn): MultiheadAttention(
          (out_proj): NonDynamicallyQuantizableLinear(in_features=128, out_features=128, bias=True)
        )
        (linear1): Linear(in_features=128, out_features=512, bias=True)
        (dropout): Dropout(p=0.0, inplace=False)
        (linear2): Linear(in_features=512, out_features=128, bias=True)
        (norm1): LayerNorm((128,), eps=1e-05, elementwise_affine=True)
        (norm2): LayerNorm((128,), eps=1e-05, elementwise_affine=True)
        (norm3): LayerNorm((128,), eps=1e-05, elementwise_affine=True)
        (dropout1): Dropout(p=0.0, inplace=False)
        (dropout2): Dropout(p=0.0, inplace=False)
        (dropout3): Dropout(p=0.0, inplace=False)
      )
      (dec): TransformerDecoder(
        (layers): ModuleList(
          (0-3): 4 x TransformerDecoderLayer(
            (self_attn): MultiheadAttention(
              (out_proj): NonDynamicallyQuantizableLinear(in_features=128, out_features=128, bias=True)
            )
            (multihead_attn): MultiheadAttention(
              (out_proj): NonDynamicallyQuantizableLinear(in_features=128, out_features=128, bias=True)
            )
            (linear1): Linear(in_features=128, out_features=512, bias=True)
            (dropout): Dropout(p=0.0, inplace=False)
            (linear2): Linear(in_features=512, out_features=128, bias=True)
            (norm1): LayerNorm((128,), eps=1e-05, elementwise_affine=True)
            (norm2): LayerNorm((128,), eps=1e-05, elementwise_affine=True)
            (norm3): LayerNorm((128,), eps=1e-05, elementwise_affine=True)
            (dropout1): Dropout(p=0.0, inplace=False)
            (dropout2): Dropout(p=0.0, inplace=False)
            (dropout3): Dropout(p=0.0, inplace=False)
          )
        )
        (norm): LayerNorm((128,), eps=1e-05, elementwise_affine=True)
      )
      (token_predict): Linear(in_features=128, out_features=20, bias=True)
    )
  )
)
save logs to /home/wsm32/project/wsm_thesis_scratch/narratives/rt_large/pos_2_2
Train the Predictor
creating pieman loaders...
Task Loader, #0 has 73subjects. And 22 segements.
Task Loader, #1 has 73subjects. And 2 segements.
Task Loader, #2 has 73subjects. And 4 segements.
creating tunnel loaders...
Task Loader, #0 has 21subjects. And 81 segements.
…
