…
m_workers=2, device='cuda', data_parallel=True, exp_dir=PosixPath('/home/wsm32/project/wsm_thesis_scratch/narratives/rt_large/pos_2_4_lang_only'), save_model=True, save_embedding=True, checkpoint=None, encoder_base='/home/wsm32/project/wsm_thesis_scratch/narratives/rt_large/0.001-0.5-2-128-0.05-8-16/best_model.pt', seed=0, test=False, freeze=False, language_only=True, resume=False, inference_dir=PosixPath('/home/wsm32/project/wsm_thesis_scratch/narratives/rt_large/pos_2_4_lang_only/inference'))
INFO:train_frame:DataParallel(
  (module): No_Scans_POS_Decoder(
    (embed): Embeddings(
      (lut): Linear(in_features=20, out_features=128, bias=True)
    )
    (pos_encoder): PositionalEncoding(
      (dropout): Dropout(p=0.2, inplace=False)
    )
    (dec_layer): TransformerEncoderLayer(
      (self_attn): MultiheadAttention(
        (out_proj): NonDynamicallyQuantizableLinear(in_features=128, out_features=128, bias=True)
      )
      (linear1): Linear(in_features=128, out_features=512, bias=True)
      (dropout): Dropout(p=0.2, inplace=False)
      (linear2): Linear(in_features=512, out_features=128, bias=True)
      (norm1): LayerNorm((128,), eps=1e-05, elementwise_affine=True)
      (norm2): LayerNorm((128,), eps=1e-05, elementwise_affine=True)
      (dropout1): Dropout(p=0.2, inplace=False)
      (dropout2): Dropout(p=0.2, inplace=False)
    )
    (dec): TransformerEncoder(
      (layers): ModuleList(
        (0-1): 2 x TransformerEncoderLayer(
          (self_attn): MultiheadAttention(
            (out_proj): NonDynamicallyQuantizableLinear(in_features=128, out_features=128, bias=True)
          )
          (linear1): Linear(in_features=128, out_features=512, bias=True)
          (dropout): Dropout(p=0.2, inplace=False)
          (linear2): Linear(in_features=512, out_features=128, bias=True)
          (norm1): LayerNorm((128,), eps=1e-05, elementwise_affine=True)
          (norm2): LayerNorm((128,), eps=1e-05, elementwise_affine=True)
          (dropout1): Dropout(p=0.2, inplace=False)
          (dropout2): Dropout(p=0.2, inplace=False)
        )
      )
      (norm): LayerNorm((128,), eps=1e-05, elementwise_affine=True)
    )
    (token_predict): Linear(in_features=128, out_features=20, bias=True)
  )
)
save logs to /home/wsm32/project/wsm_thesis_scratch/narratives/rt_large/pos_2_4_lang_only
Train the Predictor
creating pieman loaders...
Task Loader, #0 has 73subjects. And 22 segements.
Task Loader, #1 has 73subjects. And 2 segements.
Task Loader, #2 has 73subjects. And 4 segements.
creating tunnel loaders...
Task Loader, #0 has 21subjects. And 81 segements.
…
